model.pth (torch, 119375 bytes, 8 tensors)

rnn.weight_ih_l0 f8 [80, 80]
000000 fb 46 c0 46 ec f0 81 bf a1 6f b9 f5 d9 82 a8 3f
       -0.0087603053180234 0.04787331699910103
000010 a7 a6 f2 9d 68 9a 9a bf 63 c8 50 82 90 84 92 3f
       -0.02597964729344562 0.018083818391638206
000020 7a 45 e4 6e a1 01 b4 3f 77 6a 8d 3d 77 10 a4 3f
       0.07814988095585376 0.03918812395450726
000030 e7 25 c3 85 c2 a6 90 3f 5b e6 fa c8 95 44 b7 bf
       0.01626113835735579 -0.09089027554264233
000040 41 4c 15 8e 3b 40 a1 3f c3 3b 84 4f bc 85 a8 3f
       0.03369318112768172 0.04789532156620837
000050 45 06 1d 8a 24 2f a2 3f aa fd 58 01 6d cc 9e 3f
       0.03551592050508793 0.030076697547199473
000060 4c f8 07 6e 95 61 b7 3f 34 54 d9 5a 2a bd 9d bf
       0.09133275924975343 -0.029041921420077624
000070 2e 97 18 97 3c 0f 80 3f 88 f9 3d 02 67 68 b0 bf
       0.007841561661802023 -0.06409305386293884
000080 5a 1f 48 50 25 84 6f bf 3d e6 b9 88 5d c0 b3 bf
       -0.003847191694379787 -0.07715401256600614
000090 6d 07 c1 eb 7c 58 9a 3f f5 e9 20 42 9d 18 b1 3f
       0.025728179826053067 0.06678183426348723
0000a0 e0 ce f1 b2 43 cb ae bf 4b 03 1f 76 e2 b6 72 bf
       -0.060144534677332606 -0.004568943610082264
0000b0 4d ce bc e4 6f b8 92 3f 48 c7 a3 8c 6e 9d c0 bf
       0.018281696640043688 -0.12980443827796706
0000c0 53 e0 1f 26 a3 92 82 bf b7 71 7a 37 d8 c0 a6 3f
       -0.009068750954597393 0.04444003751015962
0000d0 13 aa da 45 9f 06 a2 3f b7 82 8b b6 23 c6 a0 bf
       0.035206773068541385 -0.03276168444950172
0000e0 21 98 0c 0e 45 b6 a7 bf f5 98 30 62 fe 88 86 3f
       -0.04631248280047396 0.011003482219234398
0000f0 06 5e 19 c5 c7 14 a3 bf b8 3c 60 19 c8 33 ae bf
       -0.037267916498134254 -0.05898881253971794
000100 68 43 f4 b2 37 40 be bf a7 78 04 5c de c1 8d bf
       -0.1181673824214734 -0.01452993124308606
000110 97 d3 6d 44 e5 af af bf 46 bf 98 cd 84 52 ba 3f
       -0.06188885174098074 0.10282163638544004
000120 de 03 97 9c b4 3d 86 bf 58 ad f3 c8 9d 55 a0 3f
       -0.01085988142847499 0.03190320089364701
000130 51 2e 1c 41 01 8f 84 bf ec ea 0d 0d d7 b5 ac 3f
       -0.010038385200025564 0.05607482942919781
000140 a2 43 19 ae 9a ad 85 3f 0e 19 b4 7d 63 08 b5 3f
       0.010585030019827194 0.08215925043996128
000150 cc 6e ac 59 bb ad ab bf 16 2f 6f 47 6c 73 b7 3f
       -0.05405984372756975 0.09160496467592014
000160 5a b6 f2 0d 47 7c 98 3f 66 ee 91 af c3 25 90 3f
       0.023911581255268245 0.01576905974478251
000170 f3 b1 73 47 e2 45 78 bf 60 f3 01 92 f7 51 a5 bf
       -0.005926021483201971 -0.041640984128185066
000180 31 80 c9 a6 9c cc 94 3f 2d 50 72 c7 95 06 7e bf
       0.020311782531621417 -0.007330498766481991
000190 8f e5 0c 9d a7 ec b0 3f 6e 7d 4d 18 9d 0e b1 bf
       0.06611106476056804 -0.06662923663451689
0001a0 94 c4 7a e2 5e 63 9e 3f 59 84 0e 2e d3 a8 a2 bf
       0.029675943921294648 -0.03644428193298017
0001b0 45 67 4d b7 85 90 9e bf a3 c7 0b 78 ad 31 b5 3f
       -0.029848183930290224 0.08278927021799957
0001c0 06 98 e1 3e 18 8d 75 3f 51 46 ad ca 22 50 a5 3f
       0.005261511525622714 0.04162701343615239
0001d0 92 e0 90 5a d3 f1 b1 bf ab cf 12 8a 37 05 a0 3f
       -0.07009621583063311 0.03128980217425633
0001e0 cc 3d 56 83 33 6b b0 3f 3e 9a 96 bc e9 9c 7e 3f
       0.06413576084582145 0.007473862680319741
0001f0 2c 7b 78 52 e1 c7 a3 3f d4 df 21 2c 48 bd 90 bf
       0.03863433963510085 -0.016347053235648293
000200 de 6b ab a2 85 3a 9b bf 2d 26 b0 d2 63 1d a4 3f
       -0.026590431264462804 0.03928672739864356
000210 72 1f 4c b2 25 39 b3 3f 16 a0 fe 68 f4 8e b7 bf
       0.07509074786150707 -0.09202506602616753
000220 86 c0 d3 67 2b fc 91 3f 78 e7 10 95 ee 82 a6 bf
       0.01756351300440475 -0.04396768159536085
000230 5b 81 f3 38 b4 7a 9e bf 09 f6 af f7 47 ce b3 bf
       -0.029764953590416848 -0.0773663501458587
000240 78 46 b5 63 d7 c9 b3 3f 41 ad f1 0c a0 46 a4 3f
       0.07729860481529183 0.039601327495655265
000250 d3 04 66 b0 d2 45 b0 bf ee 6a 52 8e 71 82 a6 3f
       -0.06356541449169421 0.04396395551994724
000260 4b 5a 5f f1 53 79 b6 bf 17 33 1d b9 ec 9e 9d bf
       -0.08778881686098676 -0.02892656211706698
000270 cd cc 9f bc fb d6 81 3f 26 0b 95 93 2c 29 49 bf
       0.008710829442838986 -0.000767847791543684
000280 cd 8e 5e a2 ac 1b 99 3f f5 ef 79 d8 72 72 9c 3f
       0.024519631777038243 0.027780336821237445
000290 09 ee 16 1c 50 0e 6f bf 7c 62 55 c7 f5 34 9a 3f
       -0.0037910046237053002 0.02559265164504375
0002a0 77 1b fc e5 8a d4 82 bf 3e 0e 91 4e 50 3c b0 bf
       -0.00919445528371708 -0.06342031400804957
0002b0 fd cc 51 2f 69 13 65 bf e3 79 1c c2 9e 97 ae bf
       -0.0025727323905414532 -0.05975051993867788
0002c0 1c 05 fd 56 18 6b a9 bf 7e 51 a5 35 04 0c a1 3f
       -0.04964519559735889 0.03329480318885468
0002d0 d4 36 d5 96 4a 4c b7 bf ba a0 71 37 8e bb a5 3f
       -0.09100786383097709 0.04244656016163746
0002e0 86 1f a9 f4 a6 d6 ae bf 2b f0 37 5b 17 7e ac bf
       -0.06023141609745068 -0.05564949978358443
0002f0 46 1f e9 2a a3 a1 a4 3f cd 81 72 7e 8f 5c b3 bf
       0.04029569529353565 -0.07563111149875752
000300 f4 cd 5d 5d b6 3c b1 bf 7b 2a 66 48 d9 32 41 bf
       -0.06733264712766368 -0.0005248604727950546
000310 b3 08 63 02 19 12 ab bf 7e 25 31 5a 43 d7 98 bf
       -0.05287244943748828 -0.024258663539773455
000320 32 8c 48 8c 7a ba a7 3f 3c 46 b4 03 a0 c8 a3 bf
       0.0463445945972797 -0.03864002270905728
000330 d8 f5 3f 48 eb 39 c0 3f 32 fb 7c 35 98 db ae 3f
       0.12676754978012528 0.06026912358219362
000340 c6 1e d6 0f 24 53 9d bf 4a f4 1b 39 b0 54 98 3f
       -0.028637469736650066 0.02376056049887535
000350 0e 9e e8 53 d0 0a c4 3f 45 9b 8f 34 ed 1f 91 bf
       0.156580010386492 -0.016723352749888027
000360 6f ec bf 45 9c 8e 52 bf d6 64 f9 f5 3e d2 a2 3f
       -0.0011326337908019975 0.036760299230715596
000370 07 80 31 55 38 f1 be 3f 22 20 a7 c2 9c 5b 40 3f
       0.12086822585979472 0.0004992022925813836
000380 e7 d5 d5 78 be cb 8f 3f cd 44 03 72 b2 47 b4 bf
       0.015525329649544296 -0.07921901019587381
000390 00 50 91 d7 50 00 9d bf 11 25 29 c6 83 31 b1 3f
       -0.02832151714058284 0.06716178501041649
0003a0 97 9e 59 88 6b 6a b3 bf a0 84 b5 f6 0d 45 a8 3f
       -0.07584259108409196 0.04740184437356132
0003b0 42 ef 14 cb 63 9f 7a bf 69 7a 6e dc 83 7b a2 bf
       -0.006499662225276927 -0.03609859529318699
0003c0 c4 b6 86 aa 06 8d a0 3f dd 17 b2 cd 8f 32 97 3f
       0.03232594329470609 0.022653815202396167
0003d0 77 56 1e 74 29 37 90 bf 54 48 80 cb bc 1f b0 bf
       -0.015835426056204995 -0.06298427551544822
0003e0 52 60 32 42 22 1a a9 3f ab ae 91 78 8e 12 a2 3f
       0.04902751024309339 0.03529782506742881
0003f0 90 89 3a 2a 14 be 9f bf 58 7e 6e 36 e5 de 63 3f
       -0.03099853046172424 0.002425620728402394
000400 2a fc 38 7f db b9 b0 bf d3 4c 06 84 b9 d8 87 bf
       -0.06533595901508762 -0.011643838254519789
000410 7c 0c 3f b6 da 15 87 bf cb 43 82 e9 ae 4a a8 3f
       -0.01127215260192415 0.047444787983415525
000420 26 fe 34 bf e6 67 a8 3f f2 34 01 c7 c6 d9 94 bf
       0.04766770443029271 -0.020362001320155927
000430 1a a2 55 aa d6 e5 ae bf 80 fb 16 88 3e c6 8f 3f
       -0.0603472788741934 0.015514839676027625
000440 a5 e3 c2 79 bd 29 b5 bf df db c6 93 76 b5 7a bf
       -0.08266815397918366 -0.0065207130359601065
000450 0f 19 cd 43 66 4b 97 3f 4e 0b bb ec 51 1c ac 3f
       0.02274856365991079 0.05490356459406219
000460 53 31 91 04 ac 67 b2 bf 84 22 13 1d 5c bf 99 bf
       -0.07189440833571341 -0.02514404227693713
000470 ce 0a 6f 25 4d 4a 7f 3f 91 e6 8f 1e 11 8c 86 3f
       0.007639218666499926 0.011009343857938421
000480 23 ab 74 56 04 d1 ae 3f b6 74 48 b8 0c 0d a9 3f
       0.06018842273109317 0.04892768621014325
000490 6b e7 1c c1 af 7d a2 bf 03 49 07 f1 59 3a a7 3f
       -0.036115162204125216 0.04536706034891049
0004a0 01 38 cb 61 80 1c 99 bf 58 6f ae 2d 8e a6 9c 3f
       -0.02452278706442002 0.02797910836998993
0004b0 cf 00 84 7b ff 8b 87 3f 74 86 69 f0 7f d6 76 3f
       0.011497493702791321 0.0055756566640369105
0004c0 25 24 3a e2 31 61 af 3f 90 dd 53 7f b7 ba b1 3f
       0.06128841291963053 0.06925532206138585
0004d0 9c 2b 6a ee 87 74 70 3f d7 ca be 0d 96 b8 b5 bf
       0.004017382604284327 -0.0848478110845393
0004e0 4c 17 0d 67 17 80 a1 3f e1 72 bb d7 cd 8b b1 bf
       0.034180384950146164 -0.06853949086093848
0004f0 15 63 ce e5 aa ad 9a bf e2 38 ea 80 07 e1 a6 3f
       -0.026053114200837408 0.04468558739346108
000500 e5 bc 8f e2 d6 bb 3e bf a2 9a 67 13 ba 62 52 bf
       -0.00046895977226220207 -0.0011221711298447308
000510 03 9c b7 d7 ba 76 a9 bf a5 74 c6 3e 76 4d ab bf
       -0.0497339618994417 -0.05332536236094513
000520 d1 4c 65 c3 6b 03 b8 3f fa f5 73 d8 23 df b9 3f
       0.09380219955828585 0.10106109652038944
000530 25 eb 27 a8 6a eb ae bf e5 56 a7 78 ae 45 a2 3f
       -0.06038983633694376 0.03568787787268749
000540 8f ed 2b 0b 17 ed b0 bf 28 04 76 f6 5b 80 b9 3f
       -0.06611770651573166 0.09961485640634804
000550 71 e3 65 0c 6b 61 97 3f 4e 5b 7d a1 6b 85 a4 bf
       0.022832558280672047 -0.040080417121024156
000560 19 3f 3f b7 79 0e 9d bf 22 34 42 5d 78 52 4b 3f
       -0.028375531968605736 0.0008338058201090607
000570 54 f4 7c c9 71 04 73 bf eb a2 6d 3b c2 e4 97 3f
       -0.004642910462107148 0.02333358276101453
000580 38 04 e6 83 37 d1 a1 bf 2d 7a 97 06 30 d3 93 bf
       -0.03479932293976912 -0.019360304262472084
000590 a1 59 e9 c3 b8 a7 b5 3f f1 2d 28 41 46 e9 a8 bf
       0.08459048064228238 -0.04865474267361581
0005a0 4b 3a ba 95 41 cc bb 3f 34 d1 9c 91 40 6a a9 3f
       0.10858545213179942 0.049638765120479184
0005b0 d1 8b 38 b2 29 0a a9 3f 8e 60 f9 53 46 7d 9c bf
       0.048905661588171896 -0.027821635127424353
0005c0 1b c6 7e 78 fb f7 a6 3f 4a c5 75 93 f7 22 9c bf
       0.04486070485962675 -0.027477138877150233
0005d0 29 0f f5 b1 fa b6 b9 bf 6b d7 f5 95 1d 48 bd 3f
       -0.10044829220447284 0.11438164626255591
0005e0 ce 99 ff 79 33 da 9e 3f b6 22 57 35 79 95 93 bf
       0.030129246064371 -0.019124883537900948
0005f0 78 df 1d 2d 6f db 61 3f 1d 30 12 ca 42 6e 85 bf
       0.0021798297320251812 -0.010464212218970254
000600 f0 66 8f 72 d2 50 a6 3f 05 44 0d 38 8f 28 9e bf
       0.04358537338675983 -0.029451597019321003
000610 68 db a7 3a 5d 50 b5 3f 92 51 98 f0 6d e6 a6 3f
       0.08325751001380655 0.04472678720427149
000620 b7 9f 47 f4 1c 28 b5 bf 2a 98 82 98 d1 94 81 bf
       -0.08264332736837231 -0.0085846304576301
000630 d6 41 b1 0b a9 d6 b6 3f a7 d1 ac 36 e5 15 9c 3f
       0.08921295676669358 0.027427274190999686
000640 c7 c5 47 57 40 80 c0 3f d7 68 6c df 03 28 c0 3f
       0.12891392003761679 0.1262211647925315
000650 76 22 60 e7 b0 64 a5 bf cf 2b 1c 8d e1 32 c1 bf
       -0.04178383659752154 -0.13436526670588342
000660 8b 24 49 97 ad b8 7b 3f 65 2f f3 41 82 10 aa bf
       0.006767919625937267 -0.050907202291994115
000670 9c b4 d2 4c 30 18 b1 3f ca 92 fc 86 fc 5b c2 bf
       0.06677533984721368 -0.14343220320838262
000680 c4 a3 fc 1f 65 31 57 bf ec 7b 76 88 4c e0 b2 bf
       -0.001415585284073582 -0.0737350304757311
000690 ab 5e ce fe 96 ed 95 3f 90 42 1b ea ac c1 b8 bf
       0.021414145757801133 -0.09670525279512732
0006a0 e4 6a 2f 45 79 ad b8 bf 7f be b4 be b5 4a ac 3f
       -0.09639699877827074 0.05525749161676873
0006b0 39 61 e0 f2 42 02 b4 bf f1 68 16 3d 78 35 9f 3f
       -0.07815950803376816 0.03047740815018413
0006c0 0c 82 98 a4 dd d5 93 bf 27 96 a1 03 0d b8 b3 3f
       -0.01937052075493466 0.0770271428933361
0006d0 9a 21 fd 8d ab 85 ae bf 3f 09 26 93 eb 6e a1 bf
       -0.05961357219945569 -0.03404937907454774
0006e0 2c df bf 8e c9 86 b8 3f 35 f9 10 91 e4 04 a9 3f
       0.0958066915044326 0.0488654543955697
0006f0 a3 b2 d2 8c 08 5d b3 bf af aa fb 64 a2 4d a8 bf
       -0.07563832700788935 -0.04746730311111002
000700 47 8b fc 74 5a 3c b7 3f cf e6 b7 41 2c 00 af bf
       0.09076466899982193 -0.06054819395280974
000710 c9 90 4f 44 00 55 9c 3f 32 59 06 53 b2 9c af 3f
       0.027668003243790183 0.06174237502561865
000720 ae 00 9a 8c 3e cb b6 bf 0b 15 21 3c 51 3a 41 bf
       -0.08903876240401828 -0.0005257507948576446
000730 8b cd bf 37 ba e3 a5 bf 80 e0 03 0d 37 1e 86 3f
       -0.042753047280622423 0.01079981811970776
000740 43 23 d9 a9 f4 c1 9c bf f3 79 1b 3e 48 4c 82 3f
       -0.028083632342063024 0.008934559245457918
000750 11 d6 4e 6e 03 b9 a0 3f 47 07 1e 8b f8 a9 ab 3f
       0.032661540236784366 0.05403114984711848
000760 03 67 19 01 4c 7c ab bf 52 15 73 a5 c9 cf 9c bf
       -0.053682685026343456 -0.028136397097815298
000770 58 48 ec 39 09 84 8a bf f7 96 96 ea 69 16 b2 bf
       -0.012947151260537179 -0.07065450646640757
000780 dd c1 7e 91 6f 44 a5 bf f6 38 1d d6 68 53 74 3f
       -0.041537748823774236 0.004962358014223725
000790 11 76 9e 94 45 88 a5 3f d0 d7 a2 ea 19 23 ac bf
       0.04205529631802219 -0.05495530118189118
0007a0 5d b7 f0 10 a8 a5 af bf f6 29 05 30 33 cc b9 3f
       -0.061810733859927615 0.10077209398620099
0007b0 3b 8e 1f bc 1d fb b3 bf 2a fe ef ad c1 9a bb bf
       -0.07805047839024663 -0.10783014771004021
0007c0 c9 57 a4 4f 6e 4f b8 bf 15 00 ad 4c 2b 18 ad 3f
       -0.09496201938995265 0.05682502089484857
0007d0 08 a3 4b c6 d6 18 b0 bf b3 32 94 d4 ff 36 c0 bf
       -0.06287901250074068 -0.12667844657734903
0007e0 44 59 2c 2a 65 c4 a0 3f cf e3 f8 b1 21 f2 bd 3f
       0.032748376272297125 0.11697588534379054
0007f0 f2 11 75 c6 62 17 b1 bf 9e 60 89 6a 84 9a bf bf
       -0.06676308961056757 -0.1234514961337276

rnn.weight_hh_l0 f8 [80, 80]
000000 cb de d4 c7 b6 e8 b4 bf c2 04 f7 d8 25 6b a2 bf
       -0.0816759336347516 -0.03597372315881266
000010 65 b5 d6 cf e5 94 aa bf 80 15 e7 2a eb 98 b2 bf
       -0.051917249318061555 -0.07264585301807891
000020 64 7f 79 ad e6 30 be 3f cf bb 6a 0a 54 f8 b1 bf
       0.11793367133350113 -0.07019543890304124
000030 21 73 fd c3 f8 3b c0 bf 5e 84 42 72 28 3f b1 bf
       -0.12683019227815698 -0.0673699644999188
000040 a4 7f 99 9a ac 96 b0 3f 74 d3 5a b0 76 7e a7 3f
       0.06479910635380165 0.04588671591537877
000050 bf 2c 53 d3 43 e0 80 bf 01 8b 4f 3c 05 8e a8 3f
       -0.008240251433014099 0.04795853005614071
000060 88 cf 98 b6 09 5d 9e 3f dc 32 9b b2 f3 90 b1 3f
       0.02965178658469328 0.06861804113868736
000070 a3 84 94 c7 1b 1a af bf 7b 3c c2 58 47 87 a6 bf
       -0.06074606715470423 -0.04400084455948502
000080 3b 2e e9 6c fa e1 b3 bf fc bb 22 15 d9 1b a6 3f
       -0.07766690405804237 0.043181213216818976
000090 9f 2c 96 8b b6 d0 9c bf 2e 8a 4b 57 51 00 a2 bf
       -0.02813992716759783 -0.03515867415059791
0000a0 86 82 17 02 d3 a7 aa bf 73 8d d6 65 8b b7 b5 3f
       -0.05206164742026424 0.08483191715509068
0000b0 97 8e 13 d7 4f 02 97 3f 46 d8 54 61 b6 32 a2 bf
       0.022469756605359405 -0.035543155080106234
0000c0 22 3d 64 08 6b d0 b5 bf f3 d1 d9 c2 4b 12 ad 3f
       -0.08521145777580277 0.05678021195936713
0000d0 c0 21 2f 84 55 58 ba bf 37 6a 03 05 26 f0 b0 3f
       -0.10291037060881703 0.06616437551876052
0000e0 ab 79 7e 03 d2 f5 b6 bf 99 f3 65 d3 d6 e4 a5 bf
       -0.08968842110923585 -0.04276152926011107
0000f0 c8 96 ef a9 e2 8d 94 3f bf ef f1 9c bf c1 9e bf
       0.020072499868453858 -0.030035966829458745
000100 99 ac 7d c7 42 0a 8a 3f e1 7f 88 e8 69 2c a0 3f
       0.012714883530597286 0.03158884967365317
000110 d9 7f 1c 41 a8 f9 b0 bf 83 60 82 7d fd 17 ac bf
       -0.06630946721679666 -0.05487053067298666
000120 16 55 cb cb 0f 7b b9 3f 0b f1 45 b6 03 5a a0 bf
       0.0995340225739095 -0.03193675613417398
000130 05 1d 6f ad 25 a7 ae bf e3 71 5a 53 27 80 a9 3f
       -0.059868981763026276 0.0498058594941744
000140 42 f3 83 78 95 03 84 3f 9e c9 e9 51 dc a7 b9 bf
       0.009772460689868038 -0.10021759986719878
000150 a9 60 0b bf f0 4c 95 bf ba 8a cf 11 2c 83 b5 3f
       -0.02080131689112422 0.08403277811843682
000160 fb 39 d9 28 64 10 90 bf da 17 08 5e f2 30 92 bf
       -0.015687527650067406 -0.01776484202311921
000170 e1 4b c5 27 d7 7f b0 3f 83 26 9e d3 e5 c9 a2 3f
       0.06445069046939934 0.03669660766815943
000180 a4 c0 f1 ec 6b 42 94 bf 17 55 58 dc 35 f9 bc 3f
       -0.019784628235755122 0.11317764882581503
000190 9e 68 fe 15 34 81 bc bf a6 bb db a1 cf 78 be bf
       -0.11134648835141767 -0.11903093053454813
0001a0 13 91 6b 59 ba ed b7 bf f9 98 63 3f be c2 9e bf
       -0.09347119029149935 -0.03003976117988658
0001b0 5d be f2 4c 42 f5 b5 bf 23 37 28 42 a7 94 ae bf
       -0.08577360514277062 -0.05972788508016282
0001c0 1f ae f2 fc 0c f7 a2 bf a9 58 03 93 d7 aa 71 3f
       -0.03704109752410666 0.004313318335524987
0001d0 6c 99 e0 fd e1 f3 b3 bf 5d 7c d5 77 29 44 bf bf
       -0.07794010589768668 -0.12213381934769658
0001e0 f5 3b 0c f6 1b 3d 9d bf f4 dc ea 4c 3b 22 ab 3f
       -0.02855342568642168 0.052995541705451205
0001f0 33 4d e6 a2 68 f9 a5 3f c5 2a 5d 44 f4 71 7d 3f
       0.04291846264382073 0.007188753288412901
000200 9a ef 9f cf 51 8b 7b bf 81 1f 95 91 c7 2d a6 bf
       -0.006724662374832402 -0.043318020364096384
000210 03 be ba cb bf 98 a8 3f 1b e2 75 1d 88 c1 aa bf
       0.04804038392955692 -0.052257779690027394
000220 7a 15 9a 58 c3 c1 b4 3f a1 ae 43 23 d1 6f ad 3f
       0.08108158982402883 0.05749372058366232
000230 f7 1c b8 eb 2e 26 aa bf d9 11 38 c2 9a e7 85 bf
       -0.05107256534034293 -0.010695656826109111
000240 1a 62 d8 bd 0d ff af 3f 88 45 7e f3 bd b5 8e 3f
       0.062492780136555307 0.014995082848858102
000250 94 7f 11 dd 72 95 a7 bf c2 6f e0 53 59 ee a0 bf
       -0.0460620779856519 -0.033068458069663645
000260 98 d5 22 c4 dd f5 b1 3f 47 a6 b2 67 2f 4c a9 bf
       0.07015787161329567 -0.049409371765545766
000270 33 c4 c1 f5 7c f2 b4 bf e0 0b 8b 33 b3 f1 92 bf
       -0.08182507514881436 -0.01850013734907552
000280 f6 ca 8d 4d 56 18 93 bf 8d ec 4b c6 44 fc a2 3f
       -0.018647526248467515 0.037080907064557335
000290 07 60 c5 d6 40 8c a1 3f 17 e4 c8 c6 87 d9 b5 3f
       0.03427317258564249 0.0853505001367839
0002a0 b6 28 c1 46 10 50 a3 bf 44 c8 9a 21 2e a4 ac bf
       -0.03772021163656929 -0.05594009552204729
0002b0 7d a3 fa 18 f2 97 9f 3f 4b 98 7e f8 c7 bc bf bf
       0.030853064322090774 -0.12397432152519731
0002c0 88 5a ce fb 0c 31 91 bf f3 a7 99 6b ae fc b4 3f
       -0.016788676136992225 0.08198061110456915
0002d0 76 ce 25 19 15 45 a8 bf c3 b2 00 cf e2 e3 ac 3f
       -0.04740205699900184 0.05642613198174253
0002e0 2d 59 98 9f 2a d6 b8 3f c0 da 20 d0 83 13 9f bf
       0.09701792141308792 -0.030347880914826986
0002f0 b0 a7 fc 34 47 b8 ae bf a6 e5 bd 65 86 fa a9 3f
       -0.05999968072713047 0.05073947898831514
000300 76 d4 d9 75 e8 a6 a4 bf de 2a 3d ab 2f 77 84 bf
       -0.04033590735063168 -0.009992954648301685
000310 0f 14 3a 6b 4d 5c a1 bf 8b 9c 38 0c d5 83 a7 3f
       -0.033907336558549266 0.04592767500099012
000320 53 e5 71 3a 56 70 a2 bf 39 a2 0e f6 88 a4 bf 3f
       -0.03601331199110782 0.12360435492758705
000330 cc 74 8d f1 50 87 b8 bf d6 12 bb af 37 47 a4 bf
       -0.09581476113585835 -0.03960584659720261
000340 69 b7 db 04 da 80 a2 3f 3f bf 70 fa 76 ad 72 bf
       0.03613930997185728 -0.004559960135381235
000350 ff 18 a6 7d ab 47 ae bf 05 56 a7 ad f3 d9 a9 bf
       -0.059140547836294736 -0.050490965793567745
000360 56 b8 a1 c2 88 ca a3 bf 32 2a 53 47 8b 04 b7 bf
       -0.03865458846927143 -0.08991308680848745
000370 84 51 5b 98 76 51 b8 3f 65 90 12 79 7b 0f a4 3f
       0.09499303073545745 0.039180620698318326
000380 59 05 04 33 5b 40 ae 3f a1 fa ff 69 aa ca aa 3f
       0.05908474920034718 0.05232746643013298
000390 ab f7 74 f2 f0 95 c2 3f 15 9a 63 a4 f0 15 8e bf
       0.14520084227291127 -0.014690284744983942
0003a0 e1 c5 2c 36 18 63 a3 bf d9 1c d8 bd 1a 98 a3 3f
       -0.03786540662111882 0.03826983992990458
0003b0 95 51 51 11 05 27 be 3f a6 47 4b 6a 14 e9 b6 bf
       0.11778289482874123 -0.08949401469297288
0003c0 66 a8 88 27 e4 b9 9c 3f 38 6e 54 13 05 55 a0 3f
       0.028052868760063986 0.03189864979705387
0003d0 22 5a 4a f7 a0 50 a1 3f 5b 2f 6d 27 5d 5d 76 bf
       0.033818273722477935 -0.00546013248715468
0003e0 2c 38 2c 8e 04 1f a9 3f c0 f1 93 5e 54 d2 38 bf
       0.049064771990842665 -0.0003787475566950048
0003f0 79 29 a7 76 9f d4 a6 3f ab 80 b0 49 3a 94 73 3f
       0.0445909340229091 0.004780032812988259
000400 2a e9 72 8a d0 4c bd 3f a0 e0 46 73 92 97 a9 3f
       0.11445334797000287 0.04998452813328069
000410 e2 8a 4c 6d 47 14 b1 bf 52 c0 ea 71 e9 cf 7a 3f
       -0.06671568315918422 0.00654593648384612
000420 fd a2 85 6a 45 e7 ae 3f 4e b0 53 da 45 84 b7 bf
       0.06035820889775854 -0.09186207370993424
000430 84 e5 ef b6 3e ec a4 3f 44 37 d6 3d b6 6b 82 bf
       0.04086490615004393 -0.008994506609066762
000440 32 ed 36 90 52 c1 b0 bf 45 f4 e3 88 1a f5 a9 3f
       -0.06544986744750217 0.05069811745668366
000450 b6 fa 97 d7 45 d8 3d bf ea 13 18 d8 92 41 96 3f
       -0.00045539574747969645 0.02173451847012934
000460 94 d1 62 65 51 82 b1 bf 05 26 f5 26 0e 31 90 3f
       -0.06839474416012187 0.015812131049903772
000470 ed ec e8 98 89 83 b3 3f 5f 18 fa 06 88 f4 7c bf
       0.07622585280562406 -0.007069140774211473
000480 43 1b b7 07 9b 6f a0 bf 88 ec d2 4f e9 0b 9a 3f
       -0.03210148305111329 0.025436063286843807
000490 9e f2 ed 95 31 a5 a2 bf 77 67 d6 bb 53 1c 8b 3f
       -0.036416577865542296 0.013237623376699521
0004a0 67 59 46 1d ec 6e 7a 3f 11 32 b5 c8 50 e4 94 3f
       0.006453440019319557 0.020402204752189294
0004b0 7a c0 63 d4 12 ea be 3f fa d3 b9 3d 98 08 8c bf
       0.1207591789750512 -0.013688268073773092
0004c0 e9 1c 6c 30 81 58 8e bf df a3 e6 e4 a1 8e 90 3f
       -0.014817246713859382 0.01616909942245914
0004d0 d0 fa 4a da bf 19 93 bf 0b 8e d3 e6 27 eb b8 bf
       -0.018652913759747147 -0.0973381937542898
0004e0 d4 bd 41 bc 68 9d 91 bf d4 21 1b 11 3c ea 93 bf
       -0.017202030649455427 -0.01944822172552725
0004f0 7d f3 76 e6 b3 7c a1 3f e6 94 ba 33 1f 5e a5 bf
       0.03415453136719913 -0.041733717979960436
000500 ac 43 6f 1f 9c 4e 90 3f 66 83 c8 d4 1a 8f b4 3f
       0.01592487279760106 0.08030860609916388
000510 7b de ec d0 07 d9 c1 bf 5a 4a 31 15 53 b9 a9 bf
       -0.13943574620656193 -0.05024203904817588
000520 7d d4 39 2e 8d c4 bb bf 5b bf 13 14 84 cc 92 bf
       -0.10846788767396905 -0.018358291364108364
000530 d4 41 51 66 ed eb af bf ef 6a d6 ef 21 c0 b3 3f
       -0.06234685777656393 0.07715046029481319
000540 3c af 14 17 c8 2b b9 3f 13 96 60 7b 26 d9 ac 3f
       0.09832430423255983 0.0563442254645389
000550 b3 56 a7 f1 6d 02 a1 3f 17 30 5d 63 f7 3b 80 3f
       0.033221660374392135 0.007926876754616825
000560 45 78 b9 ce 2e 78 a0 bf 0d 94 9a 73 b6 98 b0 bf
       -0.03216692231647803 -0.06483021089896131
000570 cf c1 5f ad 57 90 92 bf a3 19 42 f8 0a e1 ae 3f
       -0.01812874789897184 0.060310690693813805
000580 e1 a3 0c d6 a1 95 a7 bf d9 f4 c0 97 c5 68 a5 3f
       -0.046063477877687616 0.0418149707552204
000590 fa 22 d1 16 95 e9 94 3f f2 f9 96 3b 22 a7 98 3f
       0.020422296064029212 0.024075064551420007
0005a0 81 b1 64 ee db 62 8e bf 09 97 6a 54 6b f3 ab 3f
       -0.014836996281325511 0.05459151654694778
0005b0 29 25 0a 7f 54 6a b2 bf 01 d7 cd 47 e6 5a b4 bf
       -0.07193496800950484 -0.0795120168021093
0005c0 7b 47 f3 85 84 72 b4 bf a1 91 61 35 0b 7a c1 bf
       -0.07987240095397212 -0.13653698069096
0005d0 08 bd 72 a4 96 87 c1 bf 13 d9 91 c8 ac d3 a0 3f
       -0.13695033101746668 0.032864951594932766
0005e0 28 23 74 2a 70 1a 9f bf 41 3d 55 d0 7d e3 c1 bf
       -0.03037429103008829 -0.13975498840816594
0005f0 8a 6e a9 0b fa ba ad bf 45 f9 bf bc b8 aa a4 3f
       -0.05806714432102662 0.040365002671011875
000600 c0 33 01 df b9 92 c1 3f 6b 11 af aa c2 6a c0 bf
       0.13729022396947066 -0.1282580693642886
000610 bb 0a f6 dc 6a 68 c2 bf 19 2d 76 39 36 e7 a1 bf
       -0.14381156720272323 -0.03496713115154133
000620 66 97 fd 36 ef 24 6c 3f bd 21 2a a8 49 37 ad bf
       0.003435580459995191 -0.05706243684568644
000630 54 83 ff fb 61 3d ad 3f 9d 27 1f fe 19 dc b5 3f
       0.057108938228117495 0.08538973287718794
000640 34 0a d1 40 4c 6e 9a bf 12 45 05 15 81 aa 89 3f
       -0.02581137796028994 0.012532242254254675
000650 6b f4 f6 e6 27 28 ad bf d8 bf f9 21 fa 17 ab bf
       -0.05694698995964916 -0.05291730561009417
000660 14 55 56 ff 3c 62 b0 bf 1c bc 35 cf 8d 83 b7 3f
       -0.06399899705714446 0.09185110386691558
000670 eb 39 7e 46 06 01 a5 bf 98 79 ff db 6b 0a 71 bf
       -0.04102344141493915 -0.004160329175617504
000680 d3 cf e1 ce c2 74 b6 bf f9 a8 3b f0 51 34 9b 3f
       -0.08771913100082367 0.026566772735272946
000690 7b 31 3e 81 b8 51 7e 3f f8 28 91 ce 8d b9 b1 bf
       0.0074021537037761665 -0.0692375783266107
0006a0 8b fe 66 a3 67 2b aa bf 80 0a 73 01 74 d2 a6 3f
       -0.05111240262658353 0.04457438008968939
0006b0 5b 3f b7 b4 fd b4 bd bf 21 da 29 c3 96 ee 8e 3f
       -0.11604295408255665 0.015103509741703882
0006c0 43 91 14 4d 36 fe 85 3f 52 61 4a e0 be 94 c0 bf
       0.0107387773774198 -0.12953935577093972
0006d0 bb 06 c1 0b 64 6c 98 3f ed 0f 1e fa c1 40 b2 3f
       0.023850978104980252 0.07130062443144398
0006e0 f5 5b cf 07 5d b2 bc 3f 24 11 6a 51 a7 0c c4 3f
       0.11209660950349572 0.15663615680035392
0006f0 e8 1a 08 bc 93 d9 93 bf b1 74 72 9a 6c 85 90 bf
       -0.01938467822221926 -0.016133973051741083
000700 f7 3a bc 69 12 71 85 3f 86 69 32 16 15 2a ab 3f
       0.010469573833260066 0.05305543800314454
000710 fe 1e 70 74 e5 fa 6d bf 99 bc 0d 52 1a 2d ba bf
       -0.0036596757449877107 -0.1022507143331829
000720 78 8b 18 7d 77 38 8c bf 61 a8 98 af 3d 6b b7 3f
       -0.013779576783297762 0.09148011719722283
000730 4b 63 1f 6c 29 f3 b0 bf 95 62 20 df 07 32 b2 bf
       -0.0662103547068799 -0.07107590863632603
000740 f8 f0 3c eb a8 c5 8a 3f e6 69 4d 9a 8a bb 76 bf
       0.013072318724532725 -0.005549947182624559
000750 6a 95 02 c1 6d 1d b1 bf ee 70 89 f3 90 92 be 3f
       -0.06685529672775706 0.11942392297482105
000760 2d e4 0d e1 e7 e0 a2 3f e9 ef d7 f0 50 e6 82 3f
       0.036872144911236006 0.00922835574146315
000770 d1 e9 9d 3d 2a f3 bc bf 80 89 9f 1c 06 d2 b2 bf
       -0.11308540348355868 -0.07351720999534983
000780 dc e7 ef c0 e4 62 bd bf 92 c0 8d 9c b0 17 8a 3f
       -0.11479024610881033 0.01274049737705266
000790 98 d7 fa 22 15 04 91 bf 2f c9 b7 4e 72 16 81 bf
       -0.016617136249542946 -0.008343594577102735
0007a0 2c 23 ff 48 35 a3 a2 3f 71 3d c8 0a 57 54 bc 3f
       0.03640142932960652 0.11066192639576912
0007b0 ab e7 93 21 5e 1a b0 bf 00 2d ab 24 fe 47 97 3f
       -0.0629023391701639 0.02273556803519927
0007c0 d8 05 c0 b8 16 b2 b4 3f fa 60 67 8d ea b7 8f bf
       0.08084241877079223 -0.015487511101057273
0007d0 9c c9 59 c4 d6 5b 8a bf 90 fc 4f 06 84 b4 a8 bf
       -0.01287048136439211 -0.04825222565704579
0007e0 3d 44 5a 88 7a fc b2 bf 00 0c a9 e5 35 75 70 3f
       -0.07416501835747709 0.004018030677403139
0007f0 23 85 ec c2 a1 5e ae 3f 52 57 7b 6e a9 c2 b7 bf
       0.059315733951971227 -0.09281405398664092

rnn.bias_ih_l0 f8 [80]
000000 c8 17 0b 8b b1 bf a5 bf 0c 26 36 72 2e e2 bd bf
       -0.04247813055330557 -0.11673250473372593
000010 55 ed ec a5 e4 78 b9 bf ab 5e c9 fb 5d 48 b8 3f
       -0.09950093317904891 0.09485423466810043
000020 b8 1b cf 78 5a 1e 9d bf d9 ae 72 5e 1b 51 7e 3f
       -0.028436101554486476 0.00740156832686597
000030 35 49 93 d1 08 db 83 bf 55 49 15 e3 5f b6 c0 3f
       -0.009695118804675754 0.13056562984508938
000040 be 05 84 14 a6 17 95 bf 9b e4 38 bb a6 09 82 bf
       -0.020598025324039197 -0.008807470882958681
000050 7d 72 39 66 31 64 73 3f 88 95 6a ae 30 d2 9d 3f
       0.004734223333426099 0.029122124333885974
000060 e8 ed 69 10 d3 b7 a2 bf 45 ab a8 8a 3f bc b9 bf
       -0.03655871940005878 -0.10052868972040326
000070 d5 ec 12 0b 6a 65 9a 3f 56 aa 16 5a 9e 61 a0 3f
       0.025777489591502018 0.03199477052415449
000080 b0 ec 41 2c be bc b8 bf 7d 3a 48 ae 31 d0 82 bf
       -0.09662998753076368 -0.009186161166352175
000090 68 58 e1 25 68 bb 71 3f 9d f5 44 27 64 86 b9 3f
       0.004329115703589272 0.09970689734196587
0000a0 e5 60 ab e4 af 1e 93 3f 2c 99 3c 87 b8 8e b0 3f
       0.01867174943149132 0.06467774678876442
0000b0 57 e2 b8 2c c8 b2 bc bf 18 cd 02 44 09 52 a0 bf
       -0.11210299579477954 -0.03187588648997969
0000c0 d3 4d 3f aa 7f 14 b0 bf 59 80 a1 b7 b3 ad 98 3f
       -0.06281278520992055 0.024100120623529928
0000d0 c8 3f 36 0c 56 76 bf 3f 20 b3 89 c6 2f 0f a0 bf
       0.12289941595213272 -0.03136586473997327
0000e0 ec ab f8 ea c7 73 b7 3f 50 1b d3 06 4b a4 8f 3f
       0.09161042677503389 0.015450082917949054
0000f0 14 dc 7f ac 44 a9 8b 3f 66 f5 11 51 74 38 c0 bf
       0.013506447328820705 -0.12672285040381864
000100 12 5d 41 0b 21 72 b7 bf 34 0b fe 90 1a 47 a1 3f
       -0.09158522152698748 0.0337456037514329
000110 8f 1f e2 da 57 b3 a1 3f 86 58 0b 14 05 d3 ac 3f
       0.0345714049045106 0.056297453591171595
000120 95 15 a2 05 94 55 bd 3f ae fb e8 1f 39 97 93 bf
       0.11458706986930729 -0.019131558010709142
000130 71 7d b1 f5 84 f3 93 bf 17 b5 8a 6c 97 89 b4 bf
       -0.01948364019005794 -0.08022447967478673
000140 83 18 ba 33 57 95 38 3f 31 7c d5 a2 76 72 9a 3f
       0.0003751123328829058 0.02582726830348409
000150 38 66 62 99 ef 30 70 bf d7 cf ed 53 e9 d6 b6 3f
       -0.0039529189436052145 0.08921678828283973
000160 c2 41 b6 56 ac bc bd bf 06 19 1d a9 48 d3 ba bf
       -0.11616017453184838 -0.10478643540145435
000170 71 a1 11 3e f4 e3 97 bf 9b 01 4e af e9 3c b6 3f
       -0.02333051327551189 0.0868669560422916
000180 5d ae 4d 11 61 c2 c4 3f 47 ff 87 d6 26 5b 9b 3f
       0.16218198151487942 0.026714903682658855
000190 aa 94 a8 73 47 44 a2 3f 43 ae a6 eb 63 eb a0 bf
       0.03567717825743817 -0.03304588557815837
0001a0 d0 f7 41 07 dd ee 96 3f b9 52 ec 44 fa 46 a0 bf
       0.022395566528295607 -0.03179151622149363
0001b0 09 0f 1b f5 c3 de 71 3f 74 6c 47 67 bb 67 b8 3f
       0.004362836321607729 0.09533282538852622
0001c0 3e 3b b0 49 32 d4 ad 3f 90 93 82 90 72 38 bb bf
       0.05825955533520365 -0.10633007076337564
0001d0 90 82 36 79 39 13 b2 3f 4f 6a 4f 9d 78 65 ad 3f
       0.07060584267902414 0.05741478843966218
0001e0 b4 16 ec 72 a1 66 ad bf ce d4 89 9b 7b 1a ac 3f
       -0.05742363479479931 0.054889548050519474
0001f0 2a 5e f8 49 a4 d3 88 3f 7e f4 72 75 62 c0 b0 bf
       0.01212242460955711 -0.0654355561009243
000200 da 85 e6 d0 ad 77 9d bf 7b 82 94 71 e3 b1 9c bf
       -0.02877685153510421 -0.028022340590839506
000210 32 ac e4 99 38 42 af bf 02 51 4c 91 57 a0 a4 bf
       -0.06105210188464873 -0.04028581284197409
000220 67 5c 74 7b 5b bd b0 bf c9 b6 35 35 a4 9a a6 3f
       -0.0653893638994859 0.04414857053312244
000230 d1 91 4a dd 30 49 97 3f 31 1b 8b 92 62 ae b0 3f
       0.022740138536976155 0.06516090467185333
000240 94 7a cc 41 58 4b c1 3f 6c da 0c 53 e3 f8 ab 3f
       0.13511183941678395 0.05463323963924868
000250 52 48 d4 c8 9c f5 ac 3f 35 bb 1a 6a ed 3d 72 3f
       0.056561374202048 0.004453589821124028
000260 5c b5 6e 94 08 f9 73 bf 4f 2a 47 7d e4 bd a0 3f
       -0.004876168742084044 0.03269876508018809
000270 52 06 9f a8 6d 9b a3 3f ac 82 7b 99 f2 0f b1 bf
       0.03829519923557413 -0.06664959189539371

rnn.bias_hh_l0 f8 [80]
000000 60 a1 d3 d3 7b b0 87 3f ec d9 c9 8d c3 b0 b1 3f
       0.011567084695756236 0.0691034527934346
000010 8f 31 31 a1 13 60 7d 3f ed 41 6d 28 22 b4 a3 bf
       0.007171703985545354 -0.038483684000883624
000020 4c c6 33 3e 5b 48 b7 bf 66 56 ce ab d9 7e a8 3f
       -0.09094782131776319 0.04784279081574709
000030 6b 5b 36 17 8d 30 91 3f 03 b5 55 e7 97 90 96 bf
       0.016786770383613907 -0.022035954947047475
000040 b0 fe de 9a 44 0c b0 3f c4 38 ce ee 5c 3a a0 bf
       0.0626871946433265 -0.03169527449709755
000050 93 a2 71 a6 24 93 95 bf 1b 2a d5 5c 3d 08 8f 3f
       -0.021069119128159185 0.01515243472626531
000060 3f f7 34 28 6f 1e b8 bf 18 a9 ae ea 2c 2d ac 3f
       -0.09421438914884293 0.055032161376703026
000070 22 ed 12 0b ac 19 93 3f 63 a7 5a 68 e8 f1 8a 3f
       0.01865261857595358 0.013156715092310816
000080 c8 ec 41 ac 6c 1c b5 bf 0c 7c 1b cd 78 cb c0 3f
       -0.08246497350221482 0.1312094689846791
000090 bb 15 5e 22 b9 5b bb 3f 37 d5 13 1d ee 02 94 3f
       0.10686833466578254 0.019542427563427025
0000a0 ca 4f aa 0d 75 2f a1 bf 91 66 c3 f8 c7 a0 b2 bf
       -0.03356519500553608 -0.07276582549402578
0000b0 33 71 5c 86 56 47 c3 bf da 32 fd 7b 37 d3 ae 3f
       -0.15061456261254022 0.06020520580805107
0000c0 cb 9b 7e 94 d4 e2 ad bf fe 9f 17 92 94 4d b5 bf
       -0.05837120354345123 -0.08321503226000002
0000d0 8d 7f 6c 98 00 3f aa 3f 99 66 13 8d 11 31 9e bf
       0.05126191959993696 -0.029484056697447334
0000e0 a0 a7 0e 4a 76 24 ab bf ea 63 da 20 b7 a7 b1 3f
       -0.05301255849856479 0.0689653830726368
0000f0 b6 11 c0 a9 f1 1b 91 bf a8 53 1f 11 17 07 8f bf
       -0.016708160386785763 -0.015150242052109977
000100 b6 e9 0a da 3f 70 82 bf b7 f4 01 af 4a 43 ac bf
       -0.009003161279328303 -0.05520089517902121
000110 05 20 e2 fa 8a 55 ad 3f 16 54 fa 75 5b f3 b1 bf
       0.05729326546230599 -0.07011958723371978
000120 38 a7 77 69 0b ed 9f bf 03 05 2e c0 5e ce 81 3f
       -0.03117769080373664 0.008694401016102754
000130 5a 82 4e 8a 92 7c 99 3f 6c a4 55 64 7b a0 8b bf
       0.02488926858097993 -0.013489688872782866
000140 c9 45 cc 48 7a ef b4 bf 9e f8 aa 45 51 4a 8d 3f
       -0.08177913930219129 0.014301905573457948
000150 ac 66 a7 99 94 ec 97 3f 38 30 12 2c ba 54 b8 bf
       0.023363420370378904 -0.09504283500626876
000160 cb 7c 93 52 c3 c4 ad 3f 06 19 1d 69 d2 a2 b6 bf
       0.05814180739411653 -0.08842196527720966
000170 a5 d0 08 1f c0 20 a0 bf ba fd 63 a1 c9 1a af bf
       -0.03149986628378202 -0.06075124831294994
000180 68 5d 9b e2 47 94 bd 3f d1 00 bc 54 e4 7b a4 bf
       0.11554383547205804 -0.04000772032122913
000190 97 94 a8 73 dd 1c a2 3f fe 51 59 94 76 38 a9 3f
       0.035376472824546194 0.04925890503787754
0001a0 69 82 2f be 9e 09 bc bf e9 52 ec 84 12 23 a6 bf
       -0.10952179091646887 -0.04323633072468686
0001b0 a9 3d b9 02 9c b3 99 bf ae 93 b8 38 d3 2a b6 bf
       -0.025099218050227332 -0.08659095892706034
0001c0 35 e2 27 fb 03 40 bf bf 3e 6c 7d 4f 26 14 b5 3f
       -0.12207054979069983 0.0823387092654437
0001d0 f1 fa 92 0d 67 b8 a1 bf 8f d2 9e 3a 35 48 9b 3f
       -0.03461000481319399 0.02664263887682466
0001e0 f5 fa 44 93 58 16 c2 3f 8f 15 3b 72 8f ab b4 bf
       0.14130694571391414 -0.08074280299032054
0001f0 b9 17 7e 92 3a 47 a3 3f 79 f4 72 55 b1 28 b0 bf
       0.03765280760039453 -0.06312092147978089
000200 5e 86 e6 50 88 a8 95 bf 85 41 ca b8 eb 85 a3 bf
       -0.021150712907575524 -0.038131109530811926
000210 53 56 f2 0c 2c 58 bc bf 1f af b3 ae 96 52 a2 3f
       -0.11072039905624224 0.035786351037897506
000220 62 b9 e8 36 98 4f aa bf 89 db 9a 1a dc 16 b9 3f
       -0.05138850851322975 0.09800506257566445
000230 29 a4 52 77 7a 9d b6 3f ef e3 74 6d 2c 30 b0 bf
       0.08834042943148347 -0.06323506996422144
000240 3d 0a 67 fc 4f a7 b3 bf 26 b5 19 a6 51 e7 94 3f
       -0.07677173530741128 0.020413661730733022
000250 2e 24 6a e4 7c db bf 3f 5f a8 bc d2 50 46 a9 bf
       0.12444286896256138 -0.04936459133598769
000260 19 53 e4 5a 24 3c 9e 3f 3c d5 b8 c2 0b e3 af bf
       0.029526298568344964 -0.06227909805276474
000270 78 83 4f f4 01 e9 b4 3f 43 ab 8f d0 c0 17 61 3f
       0.08168041433920148 0.0020865217124898263

FC_out.weight f8 [5, 320]
000000 08 14 63 dc 8c d0 e6 bf c4 8a 5b 8a d1 3f e0 bf
       -0.7129577927049704 -0.5077903463646511
000010 1a 1b d3 d4 2b 5d cf bf 16 ef ca dd 54 4d a7 3f
       -0.24503085986926793 0.04551186759405661
000020 f4 c7 08 ef 26 64 db 3f 35 50 d5 d9 3f 9e e5 3f
       0.4279877981490465 0.6755675558620228
000030 18 4d db 99 b7 27 e9 3f dd fd 59 6f 2e 9c d8 3f
       0.7860982899677849 0.3845325553338322
000040 95 65 3a 69 55 16 eb 3f b8 d6 5b 20 bb f1 84 3f
       0.8464762740360806 0.010226690220842868
000050 b3 f4 c5 b8 54 27 a5 bf af 06 67 27 56 f9 92 3f
       -0.041315696292238434 0.018529268412527496
000060 b0 c8 ae f8 d4 c0 e8 3f be a8 f4 1d ef 9d dd bf
       0.7735390526852566 -0.46276452947007474
000070 e0 d8 44 a4 0f 73 cd 3f c3 cd f1 8f ad a2 ee bf
       0.23007388611740165 -0.9573581515709794
000080 f9 09 52 72 6c b9 a8 3f bc 79 82 a1 3f a9 db bf
       0.04828966994775281 -0.4322051121943351
000090 ee d2 96 7e 90 d3 ec bf fc 10 e6 26 8a e6 d1 3f
       -0.9008257362789587 0.27969602392865034
0000a0 e3 0c 81 c0 34 2d c7 3f 3d 7f f1 bf cd a3 e3 3f
       0.18106707954039 0.6137455700772773
0000b0 c4 70 f7 0a 2f 2e e3 bf e7 1f 13 67 fe cd b0 bf
       -0.5993876661482536 -0.06564321533653548
0000c0 a4 d8 f6 d3 26 0d c1 bf d4 f3 2a d2 95 55 ed bf
       -0.13321385717217027 -0.9166974167670738
0000d0 12 87 18 20 9d 0c ed bf 7a e6 d6 ed 14 5c cd bf
       -0.9077897669669446 -0.22937261212591747
0000e0 e0 65 c1 52 8d aa e6 3f 31 f9 a6 ad dd 83 e5 3f
       0.7083193413083642 0.6723469154019651
0000f0 63 21 b5 0e fd 71 e3 bf f9 1e 3a 75 49 59 e4 bf
       -0.6076646125084547 -0.6358992852774171
000100 32 c0 48 f0 89 8f ed 3f 2a 83 c7 fc 0e 7a ce 3f
       0.9237718289423411 0.23809993117085898
000110 62 93 d8 ae cb ce ea bf 07 3c 26 45 bb 84 d3 bf
       -0.8377436079941669 -0.3049762892996459
000120 70 e0 c1 81 0f 4a de bf c0 c5 8b 8d 21 a3 b2 bf
       -0.473270298687118 -0.07280168252670816
000130 2b b8 b2 1f b9 85 e1 bf d4 97 de 3f 1b 24 e8 bf
       -0.547573625479122 -0.7544075248194937
000140 c2 ee 11 42 0d 65 dc bf 65 b4 60 13 cb 98 e6 3f
       -0.44366771175530684 0.7061515215369921
000150 fc 81 c2 9c d6 53 ea 3f ad a4 55 09 5e 83 eb 3f
       0.8227341710772289 0.8597860510173142
000160 1b fc c9 bc 94 1a e1 3f c8 f7 e7 66 4a 37 d4 bf
       0.5344947516713349 -0.3158746724074004
000170 15 d5 34 6a e3 05 ea 3f 41 44 1c d6 37 66 c9 3f
       0.8132187914222039 0.19843194918260745
000180 d0 ed cf 77 01 63 e2 bf 62 c4 a0 20 a5 7a d5 bf
       -0.5745856609423132 -0.3356106585152415
000190 37 47 29 b6 cd b5 bd bf e6 cb 12 c9 ef 8e ee bf
       -0.11605535218521089 -0.9549483229842479
0001a0 73 63 0c cf 01 f2 c1 3f 12 c9 33 ce fc aa eb 3f
       0.14019796952996053 0.8646225001705565
0001b0 45 34 1f 8b 61 08 e2 bf 0a e9 1e be 13 e8 c7 3f
       -0.5635230748390617 0.18676993163337158
0001c0 bc 7f dc 1e 4d a2 ea 3f 06 8a b3 19 c0 8c ed 3f
       0.8323121645698772 0.923431444356823
0001d0 05 37 a7 14 cd cd e7 bf 1a 3b 7f 51 17 6e e9 bf
       -0.7438722041494833 -0.7946888534296221
0001e0 ab 33 f0 15 f3 d4 e7 bf bf 18 47 cd b4 e4 db bf
       -0.7447448185426898 -0.43583412214901424
0001f0 92 0d d3 54 97 49 aa 3f 2b 4a f9 ff 3a a1 cf 3f
       0.05134270582632462 0.24710786341400257
000200 6c d2 92 b4 bf e7 e3 3f 97 e3 3e 0c 0e b9 e9 bf
       0.622039654429114 -0.8038397063420345
000210 81 42 3b 39 50 89 c5 bf 6c 00 57 64 53 d4 ec bf
       -0.16825297159677535 -0.9009186706316661
000220 42 54 0c df 24 b6 e4 3f 6b a5 3b 0b 8e 3b db bf
       0.6472343784722698 -0.4255099401185222
000230 fd 91 c5 da f9 52 e6 bf 6d a4 50 d8 52 02 aa bf
       -0.697628905571548 -0.05079897776187967
000240 94 25 64 1d 02 92 d2 bf 23 cf 5f 95 43 10 de bf
       -0.29016163702234476 -0.469742675660415
000250 6c c8 c9 6a 39 95 e0 bf 7b 1b 0f 40 43 90 e2 bf
       -0.5182158551890672 -0.5801101924088096
000260 ca 68 fd 1f 7d 0c ea 3f 6e c2 66 96 77 d8 d9 3f
       0.8140245079805706 0.40383710563313613
000270 a9 20 74 99 56 a8 e1 3f e9 69 99 a1 bb bb ac 3f
       0.5517991063252526 0.05611978862426154
000280 85 8c 76 72 84 f4 d8 3f b2 4b 96 d5 59 7d ec bf
       0.3899241559794933 -0.8903016254065419
000290 80 d3 bd 3b 71 4e a1 bf 60 27 ce fc f2 5c db 3f
       -0.033801592390694246 0.42754816711441457
0002a0 a8 b2 c5 ee 04 5b dc bf 9a 8a 53 86 7e e2 ea 3f
       -0.44305537526705985 0.8401482223092274
0002b0 a6 28 64 de fe 40 e9 3f 06 70 aa 85 87 6c c3 3f
       0.7891840308741578 0.15174955393456474
0002c0 18 ce 68 7d 51 02 e6 3f 5d 05 62 ec ed 82 d0 bf
       0.6877829980280152 -0.2579912956644728
0002d0 43 9a 0c ba f7 2c eb bf 51 a0 c8 54 68 d8 e9 3f
       -0.8492392190717698 0.8076669364863936
0002e0 0c b8 ea e3 06 85 e0 bf ef 5d 9c 19 1f fc dd 3f
       -0.5162386371137031 0.4685132742028761
0002f0 81 2e 72 78 e1 d5 cc 3f d5 6e 44 cf 14 20 d1 bf
       0.22527712231782362 -0.26758308640431255
000300 e9 5a b4 ba 4d 9a cb 3f cc 21 56 4f 0d b0 db bf
       0.2156464730876089 -0.4326203608293582
000310 95 65 5e 85 62 f0 db 3f e2 88 f1 25 a0 52 e1 3f
       0.43654692673006795 0.5413361302455793
000320 91 e7 4e 63 06 bd d7 bf 9b 47 2b 1d ab 44 e0 bf
       -0.3709121675307126 -0.5083823747356634
000330 84 21 85 e0 80 c4 d5 3f 02 65 17 20 ea 67 ed bf
       0.3401186173037092 -0.9189348818573821
000340 e5 21 d8 b9 b1 f8 d2 3f e8 35 81 f9 4d 42 ea 3f
       0.2964290919194624 0.8205938218249544
000350 af 6a 32 70 6c 0e bb bf 98 8a 45 ef 31 fa ea bf
       -0.10568883647139658 -0.8430413888239228
000360 51 ba ab c5 91 d3 e8 bf 2a aa 15 02 80 70 e1 bf
       -0.775826345516018 -0.5449829140391718
000370 76 0c 7b 0d 6f c1 e5 bf 13 78 15 ea 79 0e ec bf
       -0.6798625243467444 -0.8767671176863153
000380 39 60 e7 38 1b a2 e4 bf 70 46 15 b0 74 c8 e8 bf
       -0.6447883712198809 -0.7744697035906949
000390 67 cb ba cd 02 a0 d2 bf b0 3a b3 70 5c 48 e5 3f
       -0.2910162934378406 0.6650831414388758
0003a0 ea ca 0e 8e 20 69 e1 bf e8 6d 9b ba 87 dd db 3f
       -0.5440829062048043 0.43539612983087617
0003b0 79 6c 14 2d 27 21 dc bf 3f 90 88 dc 73 fa d9 bf
       -0.4395235004646519 -0.4059114125868781
0003c0 43 6f 9c 42 14 be e2 bf b4 d3 1a e4 34 8d 93 3f
       -0.5857030201909555 0.01909334795228164
0003d0 48 c9 bd 85 e8 0c e6 bf e1 ca e7 05 f0 ce d3 3f
       -0.6890757190833847 0.30950546814635344
0003e0 1d 36 93 3f 3e ff e3 3f eb b2 2c 6e b3 7c e1 3f
       0.6249076120090568 0.5464722778175121
0003f0 ff 67 78 68 75 aa dd bf 77 ae c8 2a 5d a9 e3 bf
       -0.463528968831838 -0.6144243083594593
000400 e5 6a 2c ce 19 b0 cc 3f 69 8f e9 04 89 0f c3 bf
       0.22412416998925902 -0.14891159763203213
000410 10 71 3b 51 3a a9 e2 bf f7 29 85 54 55 32 ad bf
       -0.5831576906744278 -0.05702463776340843
000420 6f ba ed 58 6b 4e db bf 6e bc 56 07 42 4d bf 3f
       -0.4266613357967008 0.12227261237306816
000430 31 3f a6 79 e6 02 d8 3f ae 77 a3 36 cd e6 d5 bf
       0.3751770198805274 -0.34221201263232615
000440 8c 2b 39 22 d1 8e cf 3f 87 a9 f7 8c b3 b0 b9 bf
       0.2465459267717417 -0.10035249892795238
000450 fe 2e a5 59 79 e3 d7 bf 14 ef 44 2f b0 6e e4 bf
       -0.37325891260546473 -0.6385117457607259
000460 39 93 a4 36 52 5d d9 bf 07 0e 3f ca 99 c8 ca bf
       -0.39632087074487604 -0.2092468488245773
000470 06 38 fa 00 b7 5e d1 3f 40 d4 56 e1 e2 6f e4 3f
       0.27140593619776643 0.6386579896121773
000480 57 ed e1 90 5b 9a e1 bf 6e 3f e8 ce 48 52 eb bf
       -0.550092490171134 -0.8537944832951163
000490 65 f9 47 d2 e6 88 c3 3f f6 dd 16 2b b1 ef dc 3f
       0.15261540668138732 0.4521296425623115
0004a0 5c e1 61 87 fb 31 d7 bf 0b eb 92 8a 2d 95 ed 3f
       -0.36242569180423856 0.9244601923486199
0004b0 96 9e c8 27 98 8d e2 bf 1c 7b 3e ed 29 32 ee 3f
       -0.5797844674134065 0.943623507849995
0004c0 6f fb ae dd 62 cc e3 3f aa 95 4c 25 3e 6c d4 3f
       0.6186994867092447 0.3191066135644528
0004d0 a2 97 db f8 53 21 c6 bf 63 fd 23 c2 ab ca d2 3f
       -0.17289209033259306 0.29362005194703594
0004e0 93 8d 56 ab 4d aa eb bf 63 1c 56 90 ec 42 bd bf
       -0.8645389887282583 -0.11430243038022207
0004f0 f7 38 90 6b 65 5d d7 3f 7e 03 2a ec 51 3a d0 bf
       0.3650754499839332 -0.2535595709123796
000500 f5 31 74 54 70 94 d0 bf e6 5b f0 e7 47 01 d4 bf
       -0.2590599846596711 -0.3125781788853018
000510 93 b2 41 16 af 6e d1 3f 96 48 42 8b 56 4f d6 3f
       0.27238061116694573 0.3485924110365287
000520 66 36 f2 a1 2d ee dd 3f a7 d3 b7 10 03 9a db bf
       0.467662246847658 -0.4312751448881564
000530 38 8d e7 df cc dd de bf aa ba b8 75 83 df d8 3f
       -0.4822876154487008 0.3886421823143943
000540 15 1a fd a3 b4 a3 dd 3f 0e 36 f3 8c 61 66 cd bf
       0.46311679853934723 -0.22968692190481516
000550 c3 ab b3 35 12 0c ec 3f 92 0a a6 4b fd 92 d5 3f
       0.8764735268463187 0.3370965231662605
000560 91 bf ef e0 83 12 e0 bf 48 d6 7f 3b cb c2 a7 3f
       -0.5022601502696366 0.04640803433714474
000570 4c 11 aa 6a 3f 6c e7 bf d8 b2 91 81 f2 f0 e2 bf
       -0.731963833168757 -0.5919125109336063
000580 36 b3 e8 7b d5 f3 da 3f 76 b0 13 28 fd 71 e6 3f
       0.42113244152533313 0.7014146597625899
000590 b8 5f 62 06 fc a2 e2 bf 28 85 41 97 4d 7f df bf
       -0.5823955654805024 -0.4921449639424105
0005a0 6a 39 a4 d7 0a 84 e7 bf 5d 0d c9 c6 8c 3c c0 3f
       -0.734868451285178 0.12684783655468382
0005b0 40 3a 34 be 3d 11 dc bf 62 7e 80 45 e1 e4 d9 bf
       -0.43855231833086705 -0.4045947245340128
0005c0 ed 32 c1 6a 41 fa 9c 3f 7a 5f b1 65 f9 8c e6 3f
       0.028298399105824257 0.7047087656201108
0005d0 48 b8 c5 58 de a4 e8 3f 56 f9 e1 29 a1 4f d1 bf
       0.7701255544504955 -0.2704852017412994
0005e0 b4 59 c4 7f bf f6 ea bf 3b e5 96 68 43 eb e8 3f
       -0.842620610756788 0.7787186663401039
0005f0 0c da 83 f8 e4 58 ae bf cc d2 db 0b 36 ba e8 3f
       -0.05927196057921344 0.7727308494200655
000600 ea fd 8d e1 59 a8 d8 3f 51 a2 d3 15 c6 11 c2 3f
       0.3852753355676827 0.14116741243130318
000610 10 b0 2f ab f0 14 da 3f 34 15 0c d1 3b 94 e0 3f
       0.40752808301363164 0.5180949290230843
000620 41 75 1b 6b 33 ba de bf 14 56 ff 48 f0 80 dd bf
       -0.48011479816144137 -0.4609947884431176
000630 23 b3 34 77 8e 85 e7 3f 4f 40 d8 8b a9 f0 d1 bf
       0.7350532844771788 -0.28031386048042334
000640 7c f8 3c 7b ad 4c e8 bf 72 e3 2d 19 d0 3e ec 3f
       -0.7593600661273423 0.8826675884039175
000650 1c 4f 42 93 1d d5 aa 3f ee d9 50 02 41 dd cc 3f
       0.05240719244571165 0.225502134447836
000660 2d 64 50 d9 f9 64 ed bf 22 82 62 71 8a 32 d3 bf
       -0.9185761684813137 -0.29995976517423817
000670 cf 84 dd 4c 26 68 e8 bf a7 c6 24 40 f9 1c e3 3f
       -0.7627135754848043 0.5972868206792626
000680 1f 62 8f df 7e 0a e9 bf e8 22 53 ff 28 f0 c7 bf
       -0.7825312010200526 -0.18701660601643444
000690 fe d6 e2 73 85 99 dd 3f cd 2a cc f5 06 11 ed bf
       0.462495196504605 -0.9083285141690226
0006a0 10 19 14 e7 0c 4d c4 bf 71 60 48 07 59 db 8f bf
       -0.15860139163141485 -0.015555091414214158
0006b0 34 79 5e 73 8c 8a e3 3f f5 e7 98 43 e5 37 ea 3f
       0.6106626752187254 0.8193231888064917
0006c0 62 88 ac 71 92 35 f0 3f 7b d7 73 81 8a 2d ee bf
       1.013079113043681 -0.9430592087144157
0006d0 87 71 81 22 d1 d5 dd 3f f2 45 4e 06 79 ed e0 3f
       0.46617534990016235 0.5289883731040261
0006e0 40 24 8b 15 9d 02 e2 3f d7 8a bb a5 ab 89 d7 bf
       0.5628190441867744 -0.36777774033377625
0006f0 07 11 ed c7 e1 f4 97 3f 6f bf a4 4e 95 51 ea bf
       0.023395088031308322 -0.8224588905340918
000700 b1 85 2a 87 20 05 d0 bf 9e fa 1d 5a ad 6e e6 3f
       -0.2503129310590238 0.7010103950595583
000710 a4 e3 ad 65 27 25 af 3f 06 8c 56 a3 22 47 e5 bf
       0.06083033672525254 -0.6649335088917503
000720 5d 5d e6 bf f4 07 c5 3f 2c 59 e0 05 35 c6 b6 3f
       0.16430529947386222 0.08896190064874493
000730 53 b7 18 83 15 2b da bf 7a 3a 74 e3 ff 6a f0 3f
       -0.4088796406020851 1.0261229405329275
000740 71 32 4e 95 d3 92 ec bf 7b 7a e8 b0 a8 2e e8 3f
       -0.8929231563684664 0.7556956725346277
000750 e5 2a 90 f1 52 d4 e9 bf b0 a4 df a4 8a f4 ed bf
       -0.8071684568434107 -0.9361012668788558
000760 6d 69 9d b6 95 42 b9 bf a0 6a 08 01 4d 98 e0 bf
       -0.0986722536885389 -0.5185914058850649
000770 cf fc 74 15 64 47 db 3f f8 03 6c 06 f0 86 e0 bf
       0.4262323579350324 -0.5164718747547559
000780 18 b2 01 3b 21 e3 e3 bf 1b 35 e1 49 fd 9e c6 3f
       -0.6214758064721222 0.17672697169693027
000790 c5 43 5e 68 0d 71 da 3f 57 74 64 d5 fd 9c dd bf
       0.41315016929825915 -0.46270700301267226
0007a0 f8 6f 45 c2 83 cf 97 3f 72 f6 60 64 d7 a8 e8 bf
       0.023252543194175218 -0.7706105194590249
0007b0 0c d9 db b5 57 3e ee bf e4 dd c0 68 68 11 e5 3f
       -0.9451101829461392 0.658374981495339
0007c0 00 c7 31 33 28 fb e8 bf 38 98 3f 2b 8d 8b ad 3f
       -0.7806588172809086 0.05770531800207873
0007d0 76 5c dc 2b 7f 17 e8 3f a0 a4 24 1d 61 ac e6 bf
       0.7528682572036718 -0.7085424012376684
0007e0 ce d2 13 d1 72 c9 e8 bf 8e 99 1e c0 c2 6b e7 bf
       -0.774590881685606 -0.7319043876967031
0007f0 e5 53 30 d3 26 a7 99 3f 49 98 d4 52 a4 23 e5 3f
       0.025051695480289644 0.6606008165151788

FC_out.bias f8 [5]
000000 5b 18 53 52 1a 34 dd bf 54 11 08 84 23 f0 d9 bf
       -0.4563051036788061 -0.4052819051141985
000010 bf af a1 8d 12 14 b9 bf c8 ec c4 06 d2 e0 dc bf
       -0.09796253164102973 -0.4512219492059555
000020 66 85 3f 19 91 77 e0 bf
       -0.5145955556037449
